data.pth (torch, 3223 bytes, 6 tensors)

l1.weight f4 [8, 18]
000000 ad 48 17 3e ce 7b 82 3e 97 eb ed 3e f2 51 25 be
       0.14773817 0.2548508 0.46468803 -0.16144541
000010 19 d2 8f 3e 64 dc a5 3e a9 c7 59 be 07 57 2e 3f
       0.2808998 0.32394707 -0.2126757 0.68101543
000020 04 93 12 3f 81 28 16 3f dc 55 0b 3e 4e f8 2a bd
       0.5725558 0.58655554 0.13606972 -0.041740708
000030 4a 85 a9 3e d6 0b 20 bd f3 d7 47 3d 3e 79 44 bd
       0.33109504 -0.039073788 0.04878993 -0.047967188
000040 aa 51 33 3e 05 3e dd 3e 83 bf ea 3e 1d 12 13 be
       0.17511621 0.4321138 0.45849237 -0.14362378
000050 74 74 e4 be 6a 51 fe 3e 2b 45 2a bd e0 87 9c be
       -0.44620097 0.4967149 -0.04156987 -0.30572414
000060 05 10 dd 3e 6e d4 b1 be 2f ef 5c be 4d d7 b1 be
       0.43176284 -0.34732383 -0.21575616 -0.34734574
000070 03 23 06 be 13 95 ac 3e d0 44 69 be 89 3d b8 3e
       -0.13099293 0.33707485 -0.22780156 0.35984448
000080 8d 01 fb 3e 46 25 85 3e 3b a5 c5 3c 36 be a0 3e
       0.4902462 0.26005 0.02412664 0.3139512
000090 dd af b1 be cf 81 9d 3e fd 6e 62 3e ca 8c 01 bf
       -0.34704486 0.307631 0.22112651 -0.5060545
0000a0 0f 44 79 3e 23 a5 94 3e f6 07 e0 be b8 c1 90 3e
       0.24342369 0.2903224 -0.43756074 0.28272796
0000b0 eb 4e 21 3e 3f 09 0f 3f 1d 80 40 3e 84 0a c5 bc
       0.15752761 0.55873483 0.18798871 -0.024052866
0000c0 39 c4 23 3e 8d 70 bd be 30 d8 00 be cd 28 bb be
       0.15992822 -0.36999932 -0.12582469 -0.36554566
0000d0 69 ac df 3e 31 00 8e 3e 33 88 94 bd aa 7e 5f 3e
       0.43686226 0.2773452 -0.072525404 0.21825662
0000e0 ec 27 40 3e 68 c0 ac be c9 cb 99 3e cc 86 a2 3e
       0.18765229 -0.33740544 0.30038288 0.31743467
0000f0 65 94 80 be 84 d3 56 3e 37 15 71 3e 48 72 8a 3e
       -0.25113216 0.20979124 0.23543249 0.27040315
000100 35 c6 4d 3e 2e c5 2b be 2f 64 01 3e 1a 5e 95 be
       0.20095141 -0.16774437 0.12635873 -0.29173356
000110 b1 7e 21 be 49 1e 0e 3d 05 0e ca 3e 10 a3 bb bb
       -0.15770985 0.03469685 0.3946382 -0.0057262257
000120 b9 af 44 bd 88 4a 65 3c e7 29 5a be 07 2f 19 be
       -0.048019145 0.01399482 -0.21305047 -0.14959346
000130 07 19 b4 bd 33 02 c5 bd a6 c9 49 be ed 2b 68 be
       -0.08793836 -0.0961956 -0.19705829 -0.22673006
000140 c2 c4 20 3f d1 33 31 be 65 4c d0 bc 6b 43 bd 3d
       0.6280023 -0.17304923 -0.025427053 0.092413746
000150 27 07 e5 3e 8d 0a 67 be 8e e3 7b be 7e 39 37 be
       0.4473202 -0.22562619 -0.24598524 -0.17893025
000160 e3 9e c5 3e 36 86 24 be aa bd 3e 3e a9 a7 6e be
       0.38597783 -0.16066822 0.18627039 -0.23306145
000170 24 4e 5f be 73 dc 22 3f 09 53 7c 3d 12 91 aa be
       -0.21807152 0.6361763 0.061602626 -0.33313805
000180 e4 ed 12 3f 97 fd 8a be c1 f2 8a be 4f 0d 8b be
       0.5739424 -0.271466 -0.27138332 -0.2715859
000190 e9 0e d2 be 7c 66 68 be c8 2e 71 bd f9 a0 24 3e
       -0.41027 -0.22695345 -0.058882505 0.16077031
0001a0 b5 71 6e be de 3e 86 3e 16 c4 12 3d 74 e4 b6 3e
       -0.23285563 0.2621984 0.035831533 0.3572117
0001b0 ab 55 14 3f b1 2e be 3d 19 31 b3 bd 5d 7b a1 bd
       0.5794322 0.092862494 -0.08749599 -0.07884858
0001c0 15 01 db bc d3 f5 2f be e8 90 ef 3e ed 26 45 bb
       -0.026733914 -0.17183618 0.46790242 -0.0030083016
0001d0 b4 a3 8a 3d e4 5c f7 3c 65 94 5a be bd 16 bb 3e
       0.06769505 0.03019566 -0.2134567 0.36540785
0001e0 d3 e9 9d 3d 4a f1 05 3d e5 19 a3 3e 09 44 29 bd
       0.07710614 0.032700814 0.31855693 -0.04132465
0001f0 e5 ad ab bd 79 9a 54 be 6a ce ce 3b 94 48 d2 3e
       -0.08382777 -0.20762052 0.0063112276 0.41070998
000200 dd c2 95 3e 39 1f 66 be 4c fd 99 3e 02 04 07 3f
       0.2925023 -0.22472848 0.30076063 0.5274049
000210 26 0f 99 be 28 f1 8b 3e e2 5e d9 3e 36 ae e3 3e
       -0.2989437 0.27332425 0.42455202 0.4446885
000220 95 52 85 3e 6b b4 98 be c5 16 33 3e 1e c5 53 be
       0.26039568 -0.29825148 0.17489155 -0.20680663
000230 68 ea 93 bd 45 4e a8 be c2 32 a9 3d b6 14 47 3e
       -0.07222444 -0.32872215 0.082616344 0.19441494

l1.bias f4 [8]
000000 bc f9 f1 3e 7e d3 b1 3e aa ca 06 3f 89 9b c5 3e
       0.47260845 0.34731668 0.5265299 0.38595226
000010 5c 25 19 3e c3 00 8b 3e 26 a5 8a bd f3 ba cd 3e
       0.14955658 0.2714902 -0.06769781 0.40181693

l2.weight f4 [8, 8]
000000 71 30 43 3f 85 2c a1 be 60 df 51 3f 8c 15 5a 3f
       0.7624579 -0.31479278 0.8198147 0.8518913
000010 d5 1d 8a 3e 91 44 d4 be e7 bc 9a be bc f6 00 3f
       0.26975885 -0.41458562 -0.30222246 0.50376487
000020 35 2b 88 3e 69 e8 1e 3f f2 a8 a7 be e1 4c 3e 3e
       0.26595464 0.6207338 -0.32746083 0.18584014
000030 3d 1f 0e be 5d 05 2f 3f a0 f1 54 3e 12 0c ac be
       -0.13879104 0.6836756 0.20795298 -0.3360296
000040 f6 e9 4f 3e 10 33 e4 3d 9f 27 fc 3d 78 bf 57 be
       0.20304093 0.11142552 0.123122446 -0.21069133
000050 e8 0c 82 3d ab 6c 3e be 98 42 8c be e4 4b 1e be
       0.06350118 -0.18596141 -0.27394557 -0.15458637
000060 2a dc 00 3e 25 d1 28 3f ec 26 59 3d 2f db 5f be
       0.12583986 0.6594413 0.053015634 -0.21860956
000070 9e 6f 10 bd 3d 2b a5 3e 4e a2 0a 3e b8 15 8a be
       -0.035262696 0.3225955 0.13538477 -0.26969695
000080 46 5f 19 3d be 76 47 3f b4 11 75 3d 8c 02 67 be
       0.037444375 0.7791556 0.059831336 -0.22559565
000090 a7 58 5a be a6 70 60 3f cf 2c 4c 3f 0a 0c 81 be
       -0.2132288 0.8767189 0.7975587 -0.25204498
0000a0 a7 c4 e8 3e 50 74 99 be 40 45 91 3e 55 9e 31 3f
       0.45462534 -0.29971552 0.28373146 0.6938222
0000b0 97 ed 04 3f eb 5f 6d be d2 6b f6 be a1 06 3c 3f
       0.51925033 -0.23181121 -0.48129135 0.73447615
0000c0 a4 86 2d 3d a6 e2 35 3f 70 31 50 be ae 3b 1e be
       0.04236473 0.71048963 -0.20331359 -0.15452453
0000d0 c9 5e 4d bc ce 51 18 3f c8 84 1b 3e 1a c8 b1 bd
       -0.012534806 0.59499824 0.15187371 -0.086807445
0000e0 45 b4 20 bc 2e d8 4b 3f da d6 17 bf 70 91 5f be
       -0.009808605 0.7962674 -0.5931221 -0.21832824
0000f0 35 f7 ad be 3f d4 00 3f 59 37 8a 3e d8 4e 45 3c
       -0.33977666 0.5032386 0.26995352 0.012042724

l2.bias f4 [8]
000000 73 09 b5 3e 54 66 95 3d e1 6e 85 be 96 09 fe 3d
       0.35358772 0.07294908 -0.26061156 0.12404172
000010 c2 d2 59 3e c4 71 b6 3e ee d5 36 3e 45 eb ff 3e
       0.21271804 0.3563367 0.17855045 0.49984184

l3.weight f4 [2, 8]
000000 01 01 3a bf 03 6c 2f 3f 08 8f 1a be 19 4d 3f 3f
       -0.7265778 0.6852419 -0.15093625 0.74727017
000010 83 2a 63 3f 11 3f 29 bf fe 9e 3f 3f ad 09 d1 3e
       0.8873674 -0.66111857 0.7485198 0.40827695
000020 16 a0 50 3f 34 02 81 bf c9 b4 c4 bc 23 15 0a bf
       0.8149427 -1.0078797 -0.024011986 -0.539385
000030 15 eb f3 be a7 7a 09 3f b8 29 99 be 9e b7 b4 be
       -0.4764029 0.5370278 -0.2991464 -0.3529634

l3.bias f4 [2]
000000 ce 1a 8b be 5f 43 98 be
       -0.27168888 -0.297389
